app/src/main/assets/autism.tflite (tflite, 2644 bytes, 6 tensors)

sequential/dense_1/BiasAdd/ReadVariableOp f4 [5]
00000000: 1445 75bc 0000 0000 176d 43be 4479 2dbe
00000010: 4266 3abc
-0.014970083 0.0 -0.19084583 -0.1694079 -0.011376919

sequential/dense_2/BiasAdd/ReadVariableOp f4 [2]
00000000: d2b9 333f 2418 2bbf
0.70205414 -0.6683371

sequential/dense/BiasAdd/ReadVariableOp f4 [8]
00000000: 5490 633e 74a8 523e 6380 5b3e 178c 7b3e
00000010: 7dd0 49be f92d 75be 0000 0000 a2d5 62be
0.22223026 0.20572072 0.21435694 0.24565159 -0.19708438 -0.23943318 0.0 -0.22151807

sequential/dense/MatMul f4 [8, 10]
00000000: 005e db3d b52f 293e 3f83 bdbd 027f 13bd
00000010: eea2 abbd e88d 233c dcc4 a5bd e089 89be
00000020: 9ac5 643c 5681 0e3e d944 dc3d 2dd9 ca3c
00000030: 74cb c73d bcd1 633e 0e45 c53d 652f efbd
00000040: 4f73 043e 7a24 83bd 8685 9fbd 5321 523e
00000050: ca38 843c d0e5 1f3e 0447 8ebb 436e afbd
00000060: 86a5 91bd 1fb1 863d b4b2 f5bd a953 86be
00000070: 9738 15bd 059f 2a3e 124f 303d 5803 173e
00000080: 7a31 a7bb 8d32 0dbd 4fdc 64bd 0335 4b3d
00000090: baa4 c5bd dc13 93be b35e 2dbc 05e9 b13d
000000a0: 511f 613d 6344 d5bd 9b75 093e 38b1 573d
000000b0: 0576 fd3d a34d 343d 6773 3a3e 9960 b23e
000000c0: 30d4 213b de85 86bd 001c 18bc c8a1 16be
000000d0: d378 ee3c 83ad 113d 2fa9 353d 3742 3bbc
000000e0: b69b 3d3c 3f11 d43e dc3c 8fbd 4cc6 e5bc
000000f0: ea9f f6bd e61f c2bc 8679 0fbc 334a e0bb
00000100: abb2 b2bc aba3 a13c 441e 93bb 20dc 0a3c
00000110: ddf2 763c 3bd3 bfbc 585b d6bc d5b0 bebd
00000120: c783 b53b 5e8f 953d 231f a43d 2fc7 173c
00000130: 0491 083e 2fe4 aa3e 4585 1c3a 7a21 6c3d
0.107112885 0.16522105 -0.09253549 -0.036009796 -0.08380686 0.009982564 -0.080941886 -0.26863003
0.0139631275 0.13916525 0.10755319 0.02476176 0.097556025 0.22247976 0.09632312 -0.11678962
0.12934612 -0.06403442 -0.077891394 0.20520525 0.01614036 0.1561501 -0.004341962 -0.08565953
-0.07111649 0.06576752 -0.119969755 -0.26235703 -0.03643092 0.16662224 0.043044157 0.1474737
-0.0051023336 -0.034472037 -0.055874165 0.049611103 -0.0965056 -0.2872609 -0.01058166 0.08687023
0.054961506 -0.10413434 0.13423769 0.052659243 0.12376026 0.044019353 0.18208085 0.34839323
0.0024693124 -0.06568502 -0.0092840195 -0.14710152 0.029110348 0.035565864 0.0443508 -0.011429361
0.011572769 0.41419408 -0.0699403 -0.028048657 -0.1204222 -0.023696851 -0.008757001 -0.0068447827
-0.021813711 0.019731363 -0.004489692 0.008475333 0.015072552 -0.023416152 -0.026166603 -0.09311072
0.0055393907 0.07302736 0.08013751 0.009263798 0.13336569 0.33377215 0.00059707864 0.057649113

sequential/dense_1/MatMul f4 [5, 8]
00000000: e75e 67bb 3e08 633b 06a9 8a3c 484d 153c
00000010: 973b 50bd 11fe b03c 878b 3e3d aabc 9eb9
00000020: eb26 6abd 85c4 febb c2db e6bb 302c 4d3c
00000030: 7593 28bd a25a e9bc a700 dabc 4b76 b5bb
00000040: bea5 a0bd bd80 aabd d012 84bd 23c1 18be
00000050: 5c4a 733d aa24 b03e 8aca e2bc 1e5f f73d
00000060: dcc3 f1bd b437 d7bd b9d9 2bbe df88 0cbe
00000070: c2f0 d93d 326b ce3e 01c7 80bd 4747 2b3e
00000080: 8ed0 8cbc 44cf 91bd ac94 0abd 3e7d b93d
00000090: ab8c 42bd c676 703c b519 cebc 5fb0 a5bd
-0.003530437 0.0034642364 0.0169263 0.009112664 -0.05083808 0.021605523 0.046519782 -0.00030276674
-0.05716602 -0.007774892 -0.00704524 0.012522742 -0.04115625 -0.0284856 -0.02661164 -0.0055377833
-0.07844113 -0.08325336 -0.06448901 -0.14917426 0.059397087 0.34402972 -0.027684469 0.12078689
-0.11804935 -0.105086714 -0.16782273 -0.13724087 0.10641624 0.4031616 -0.06287957 0.16726409
-0.01718929 -0.07119611 -0.03383319 0.09057091 -0.047497433 0.014676755 -0.025158742 -0.08090281

sequential/dense_2/MatMul f4 [2, 5]
00000000: 0539 543e 5676 11bf 31d0 90bf 98a4 84bf
00000010: bf07 40bf bbda d33e c51d 17bf cabc ce3e
00000020: 4e52 933f 469a 5b3d
0.20724876 -0.5682119 -1.1313535 -1.036273 -0.7501182 0.41377816 -0.590298 0.4037841
1.1509492 0.053613923
